model.pth (torch, 20039 bytes, 14 tensors)

l1.weight f4 [8, 292]
0	0xbd028fec	-0.031875536
1	0x3d9bcb4f	0.076071374
2	0xbad3e15a	-0.0016165182
3	0xbe3e6a8c	-0.18595332
4	0x3d6fca3c	0.058542475
5	0xbe39947b	-0.18123047
6	0x3c430800	0.011903763
7	0xbd0a5e1d	-0.03378116
8	0xbe1d4035	-0.15356524
9	0x3e32b594	0.17452079
10	0xbe365635	-0.17806323
11	0xbda69ed5	-0.081357636
12	0x3e2eaba8	0.17057669
13	0xb9302445	-0.0001679818
14	0xbe018a9e	-0.12650535
15	0xbd94ded2	-0.07269062
16	0x3e2de2f5	0.16981108
17	0xbc9c18b3	-0.019054746
18	0xbd2f4ead	-0.04279964
19	0xbd5e9aaf	-0.054346737
20	0x3d86cd82	0.06582166
21	0xbdb618cd	-0.08891449
22	0xbb7d5387	-0.0038654523
23	0xbd6c731b	-0.05772696
24	0xbd65ffb0	-0.056152046
25	0xbd0fd948	-0.035119325
26	0xbc2be785	-0.01049221
27	0xbe20042a	-0.15626588
28	0x3b581ab5	0.0032974903
29	0xbca6cba6	-0.020360779
30	0x3dac506a	0.08413775
31	0xbd73c2bd	-0.05951189
32	0x3d94e147	0.07269531
33	0xbdece577	-0.115672044
34	0x3e3a255d	0.18178315
35	0xbdbc4949	-0.091936655
36	0xbe7a914f	-0.24469493
37	0xbca2a9ee	-0.01985642
38	0x3d15058e	0.03638225
39	0x3ea11121	0.3145838
40	0xbefd446d	-0.49466267
41	0xbddab621	-0.106792696
42	0xbe32cd26	-0.1746107
43	0xbdfb98e9	-0.12285025
44	0x3eb90ab4	0.36140978
45	0x3d85c847	0.065323405
46	0xbd27b22a	-0.040941395
47	0x3dda0cba	0.10646959
48	0xbd9c67bb	-0.076369725
49	0xbda2885b	-0.07936164
50	0xbf1b5638	-0.60678434
51	0x3cff5d3a	0.031172384
52	0xbef89567	-0.48551485
53	0xbd31e1dc	-0.043428287
54	0xbee3e9dd	-0.4451436
55	0x3e071f8e	0.13195631
56	0xbd61945f	-0.05507314
57	0x3d3e76ce	0.04650002
58	0xbe6e3682	-0.2326298
59	0xbd7a8ece	-0.061171345
60	0xbcb636d0	-0.022242934
61	0xbd2c7bd8	-0.042110294
62	0xbd9db8d6	-0.0770127
63	0xbd20133f	-0.039080855
64	0x3e54036f	0.20704435
65	0x3d517198	0.051133722
66	0x3e2374da	0.15962544
67	0x3da526bd	0.08064029
68	0xbc6745e3	-0.014115783
69	0xbddb2eae	-0.10702263
70	0xbd2a8b55	-0.041636784
71	0xbe98e9b2	-0.29865795
72	0xbdd8c0af	-0.105836265
73	0xbca06118	-0.019577548
74	0xbdf30a6a	-0.11867221
75	0xbe494109	-0.19653715
76	0x3ddb46ba	0.107068494
77	0x3ca09da4	0.019606419
78	0xbd3d6dba	-0.04624722
79	0x3dfe53ae	0.124183044
80	0xbbb10ff5	-0.0054035136
81	0xbe985dc6	-0.29759043
82	0x3ba1aa5d	0.004933639
83	0x3e57b772	0.21066073
84	0x3d2c54ff	0.042073246
85	0x3d9caba5	0.07649926
86	0xbb89052d	-0.004181525
87	0x3ce1b248	0.027550831
88	0xbdf5e831	-0.120071776
89	0xbd1ed1cf	-0.038774308
90	0xbdd131ed	-0.10214601
91	0xbcb6eaed	-0.022328818
92	0xbdcb749a	-0.09934349
93	0x3d9b8af4	0.075948626
94	0xbe457295	-0.19281991
95	0xbd7e8127	-0.062134888
96	0xbdeb2450	-0.114815354
97	0xbd8b5828	-0.06803924
98	0xbc3c61b9	-0.011497908
99	0x3c3cb873	0.0115185855
100	0xbe089140	-0.13336658
101	0xbe76cd5c	-0.24101776
102	0x3dd52ccd	0.10408936
103	0xbe82c2a7	-0.25539133
104	0x3e21c916	0.15799364
105	0xbbdbe4b7	-0.0067106145
106	0xbd515508	-0.051106483
107	0xbdf5ac39	-0.119957395
108	0xbe87d7ef	-0.26531932
109	0x3d3e003a	0.046386935
110	0xbdb7f412	-0.089820996
111	0xbe63ec33	-0.22258072
112	0x3ea247f2	0.31695515
113	0xbd79e49b	-0.06100903
114	0xbd955ff8	-0.07293695
115	0x3e5890b9	0.21148957
116	0x3da62f45	0.08114485
117	0x3d2f395a	0.042779304
118	0xbe164f9b	-0.14678805
119	0xbdc822ba	-0.097722486
120	0xbe6489c7	-0.22318183
121	0xbe8fb6b1	-0.2806907
122	0x3dd5b88d	0.10435591
123	0x3dd740d3	0.10510411
124	0xbe3859e6	-0.18003044
125	0xbbe17d87	-0.006881419
126	0xbdea2be7	-0.11434155
127	0xbc351ab1	-0.011053727
128	0xbf151cf6	-0.58247316
129	0xbde370ff	-0.11105537
130	0xbe02e516	-0.12782702
131	0xbda2d31e	-0.07950424
132	0xbd1aa456	-0.03775438
133	0x3b2c5207	0.002629401
134	0x3db0b9ad	0.08629165
135	0xbd84830a	-0.06470306
136	0xbc8737c3	-0.016506081
137	0xbc03f70c	-0.008054506
138	0xbe56fe11	-0.20995356
139	0xbc355ffe	-0.01107025
140	0xbb838e98	-0.0040148012
141	0xbd990780	-0.07472134
142	0x3e069b65	0.13145216
143	0xbe680bdb	-0.22660773
144	0xbd204ae0	-0.039133906
145	0x3da3c5c7	0.079967074
146	0xbee9699c	-0.45588386
147	0x3ded3ced	0.11583886
148	0xbb659bdf	-0.0035035533
149	0x3c254f16	0.010089656
150	0xbd7a24f8	-0.061070412
151	0x3e932a57	0.2874324
152	0xbd62db97	-0.0553852
153	0xbda3c578	-0.079966486
154	0xbe0ae0dd	-0.13562341
155	0xbe95b6f0	-0.29241133
156	0xbd84a7f3	-0.06477346
157	0x3bac604e	0.005260504
158	0xbdbf09b8	-0.093280256
159	0x3e7ddee1	0.24792053
160	0xbf7ea091	-0.99463755
161	0xbeea9682	-0.45817953
162	0xbd141803	-0.03615571
163	0x3e6cf015	0.23138459
164	0xbdb3c35c	-0.08777496
165	0x3d581a0b	0.05275921
166	0xbe94fa31	-0.2909713
167	0x3dc5c53c	0.0965676
168	0x3d49e74f	0.04929286
169	0x3d890e44	0.06692174
170	0x3e93d386	0.28872317
171	0xbd932d68	-0.07186395
172	0xbe05ff7a	-0.13085738
173	0x3d81eb4d	0.06343708
174	0x3ece526c	0.40297258
175	0xbd135cb3	-0.035977077
176	0x3cd059b6	0.025433403
177	0x3e8653b4	0.26235735
178	0x3e511b90	0.2042067
179	0xbd4c95c6	-0.049947523
180	0xbda091f1	-0.07840336
181	0x3dd4bae6	0.103872105
182	0x3de00971	0.10939301
183	0xbe0e4a4a	-0.13895527
184	0xbe363ded	-0.1779706
185	0xbe449ca7	-0.19200383
186	0x3db8a807	0.09016424
187	0xbcafcd01	-0.021460058
188	0xbea99c21	-0.3312693
189	0xbd5cf4db	-0.05394445
190	0x3d12fd36	0.035886012
191	0x3bfcd1cb	0.007715439
192	0xbd539a70	-0.051660955
193	0xbce923b6	-0.028459411
194	0x3daa270f	0.08308231
195	0xbd4f77a7	-0.05065122
196	0xbce76a6c	-0.028248988
197	0xbde3c1dc	-0.1112096
198	0x3e41170e	0.18856451
199	0xbd9aca30	-0.075580955
200	0x3e8ea4a2	0.2785998
201	0x3e8f68da	0.28009683
202	0xbe5d48ce	-0.21609804
203	0xbe4f6618	-0.2025379
204	0xbd90471b	-0.07044812
205	0x3caf5703	0.021403795
206	0xbd186fbb	-0.03721593
207	0x3eb62bca	0.35580283
208	0x3d62d74c	0.055381104
209	0xbe579e0b	-0.21056382
210	0x3c3ee6f1	0.01165174
211	0xbe1bdc18	-0.15220678
212	0x3d9aee93	0.07565036
213	0xbda00b79	-0.07814688
214	0xbc1bfef3	-0.009521234
215	0xbd21e6c7	-0.039526727
216	0xbf451384	-0.76982903
217	0xbc9b971b	-0.018992951
218	0xbe344bbc	-0.17607015
219	0xbe44c245	-0.19214733
220	0xbde1798e	-0.11009513
221	0xbdaad22d	-0.08340869
222	0xbd853ae8	-0.06505376
223	0x3d91c640	0.07117891
224	0x3da742dd	0.0816705
225	0x3e843976	0.2582509
226	0x3e52731e	0.20551726
227	0x3d716de7	0.0589427
228	0x3d0d7b92	0.034541674
229	0xbc8f5abb	-0.017499318
230	0x3ce94865	0.028476903
231	0x3e0fe987	0.14053927
232	0x3cad7fad	0.021179045
233	0xbeada89e	-0.33917707
234	0xbe0563ff	-0.13026427
235	0xbcd39541	-0.025828006
236	0xbd3ca11c	-0.046052083
237	0x3c9a50aa	0.018837292
238	0xbdfe3843	-0.12413075
239	0xbde72581	-0.1128645
240	0xbcbf8d30	-0.023382753
241	0x3d0c11f6	0.034196816
242	0x3d572fc3	0.052535783
243	0xbe2b49db	-0.16727392
244	0xbcd9ea56	-0.026600998
245	0xbd591a14	-0.053003386
246	0xbd4f03b1	-0.05054063
247	0x3d3342af	0.043764766
248	0xbdfe7083	-0.12423804
249	0x3e268c91	0.1626456
250	0xbe04343c	-0.12910551
251	0xbde6e958	-0.112749755
252	0x3e3763e7	0.17909203
253	0x3c901b00	0.017591
254	0x3d3f52f4	0.04670997
255	0x3e91237c	0.28347385

l1.bias f4 [8]
0	0x3f1f08b3	0.6212265
1	0xbe341c00	-0.17588806
2	0x3ef009b4	0.46882403
3	0x3e705a22	0.23471883
4	0x3ceb6a66	0.028737258
5	0x3e3db284	0.1852513
6	0xbe29e19e	-0.16589972
7	0x3cf68bdd	0.030095989

l2.weight f4 [8, 8]
0	0xbe186e13	-0.1488574
1	0x3eb4b6fd	0.3529586
2	0x3f1c8f3a	0.61156046
3	0x3d873f11	0.06603826
4	0x3dbf8d55	0.09353129
5	0x3ca7e868	0.020496562
6	0xbcbac0e1	-0.02279705
7	0x3e10b018	0.14129674
8	0x3f25f101	0.6482087
9	0x3dd9841c	0.10620901
10	0xbd6b780f	-0.057487544
11	0x3db0422f	0.086063735
12	0xbb4f13ab	-0.0031597416
13	0xbe3d94fb	-0.18513863
14	0xbe8e206f	-0.2775912
15	0xbd171b74	-0.036891416
16	0x3e5a9c33	0.21348648
17	0x3e387768	0.180143
18	0x3d14adc1	0.036298517
19	0x3ea37188	0.31922555
20	0xbd7765c0	-0.06039977
21	0xbeb15c79	-0.34640864
22	0xbe02b55b	-0.12764494
23	0x3e8288da	0.25495034
24	0x3dc5bc27	0.09655028
25	0xbe4e1f5c	-0.2012915
26	0xbed7e4fa	-0.42166883
27	0xbd68c7c1	-0.056831125
28	0xbeb60a9e	-0.35554975
29	0x3e3c2614	0.183739
30	0xbedd86df	-0.4326696
31	0x3db4092a	0.087908104
32	0xbc3af19c	-0.011410143
33	0xbe20bddd	-0.15697427
34	0x3e05f5b2	0.13082007
35	0x3f0713ed	0.5276478
36	0x3eac985d	0.33709994
37	0x3c6355d6	0.013875445
38	0xbdb03181	-0.08603192
39	0x3e9cf3e4	0.30654824
40	0xbd1c3c03	-0.03814317
41	0x3e75e14c	0.24011725
42	0x3d672895	0.056435186
43	0xbec07e66	-0.37596434
44	0xbcba70fa	-0.02275895
45	0x3ec1d175	0.37855116
46	0xbe76e50d	-0.24110813
47	0xbe2b8d7a	-0.16753188
48	0x3ea17b94	0.31539595
49	0x3de69443	0.112587474
50	0x3e13622d	0.1439292
51	0xbda932f8	-0.08261675
52	0x3e7d7933	0.24753265
53	0xbd94f6aa	-0.0727361
54	0xbe136ac1	-0.14396192
55	0xbe873a3a	-0.2641161
56	0xbc8dd857	-0.017315073
57	0x3e5ffecd	0.21874543
58	0x3ca92731	0.02064857
59	0xbd5a41f9	-0.053285573
60	0xbe9ad73d	-0.3024234
61	0xbedad395	-0.4273955
62	0x3ea9a2f3	0.33132133
63	0x3e435ff2	0.19079569

l2.bias f4 [8]
0	0x4011400e	2.2695346
1	0x40008c26	2.008554
2	0x400791e5	2.1182797
3	0x3f0fbaed	0.561446
4	0x3ffa3399	1.9546996
5	0x3fc2ba91	1.5213186
6	0x3fbc1c18	1.4696074
7	0x3ff245ff	1.8927611

l3.weight f4 [12, 8]
0	0xbeb3e115	-0.3513266
1	0x3f00de11	0.50338846
2	0x3ed8fa88	0.4237864
3	0xbe0b6ef3	-0.13616543
4	0xbea41db2	-0.32053906
5	0xbed6fbfd	-0.41989127
6	0x3e4319c4	0.19052798
7	0x3ecbdbb3	0.39816055
8	0xbf7f3ff1	-0.9970694
9	0x3f4ee0b6	0.8081163
10	0x3ebc1ddc	0.3674153
11	0x3f46c7aa	0.77648413
12	0xbf828e97	-1.0199765
13	0xbce3f62b	-0.027827343
14	0x3f00c73f	0.50304025
15	0x3d47f75e	0.048819892
16	0xbf263e69	-0.6493898
17	0xbf4e4f03	-0.8058931
18	0xbf88a982	-1.067673
19	0x3f76b75f	0.9637355
20	0xbf402ddc	-0.75069976
21	0x3f414504	0.75495934
22	0xbf48704f	-0.7829637
23	0xbf4656af	-0.7747602
24	0xbeba9010	-0.36438036
25	0x3f486b3d	0.7828863
26	0x3f109267	0.5647339
27	0xbf172f04	-0.59056115
28	0x3f3945ba	0.7237202
29	0xbf2d8e1b	-0.6779496
30	0x3f420493	0.7578823
31	0xbf51f647	-0.82016414
32	0x3f611ec5	0.87937576
33	0x3f10d9f7	0.5658259
34	0x3f0933f6	0.5359491
35	0xbf2b5114	-0.6692059
36	0xbf7bb273	-0.98319167
37	0x3f40e47f	0.7534866
38	0x3f3c9a1d	0.7367266
39	0x3f305209	0.68875176
40	0xbecdbee3	-0.40184698
41	0x3ef787a9	0.48345688
42	0xbf2917f0	-0.6605215
43	0x3f0784d1	0.52937037
44	0xbf0c463a	-0.5479466
45	0x3f32b0b0	0.69800854
46	0x3eeaef6d	0.45885792
47	0xbf162b82	-0.5866014
48	0xbe435904	-0.19076926
49	0x3d4c4607	0.04987147
50	0x3e1a85c1	0.15090086
51	0x3e40d328	0.1883055
52	0xbd79c5f7	-0.06097981
53	0xbe1dcd24	-0.15410286
54	0xbe47d03a	-0.19513026
55	0x3e1bb68b	0.15206353
56	0xbece616e	-0.40308708
57	0x3e4aac7d	0.19792362
58	0x3da56cbb	0.08077379
59	0x3f05d9e2	0.5228559
60	0x3e5e4503	0.21706013
61	0x3d9b4325	0.07581166
62	0xbe85f5f0	-0.26164198
63	0xbe9b0cbf	-0.30283162
64	0x3f3b47c1	0.7315636
65	0xbf5a0c6c	-0.85175204
66	0xbf81f644	-1.0153279
67	0xbf2d1864	-0.6761534
68	0x3f140071	0.57813174
69	0x3f24aa9f	0.6432285
70	0x3f22b503	0.6355745
71	0xbf670495	-0.90241367
72	0x3f3426d4	0.70371747
73	0xbf644af8	-0.89176893
74	0x3f191bd5	0.59808093
75	0xbf17e4c6	-0.59333456
76	0x3f3799aa	0.7171885
77	0xbf4edcd4	-0.80805707
78	0xbf57a46f	-0.8423528
79	0x3f51a4b7	0.8189196
80	0xbee61773	-0.44939765
81	0xbf78dd6e	-0.97212875
82	0xbf4e499d	-0.80581075
83	0xbf0dbe09	-0.55368096
84	0xbf84e818	-1.0383329
85	0xbf1f562e	-0.62240875
86	0xbf1d2e51	-0.613988
87	0x3f621bee	0.8832387
88	0xbf2d4fbe	-0.676998
89	0x3f0807aa	0.53136694
90	0x3f3c7c9b	0.7362763
91	0x3f75284d	0.9576462
92	0x3f25c287	0.6474995
93	0xbf307b5a	-0.6893822
94	0xbf3fe618	-0.7496047
95	0x3ee9ff5c	0.45702636

l3.bias f4 [12]
0	0x4022e8dc	2.5454626
1	0xbe1ee972	-0.1551874
2	0x3dfc2788	0.123122275
3	0xbf174044	-0.59082437
4	0xbd9a1e59	-0.075253196
5	0x3ff0be94	1.880816
6	0x3fa73e6e	1.3065927
7	0x3fe97b7f	1.8240813
8	0xbeef4e02	-0.46739203
9	0xbe8e67cd	-0.2781357
10	0x3e8dd868	0.27704167
11	0xbfaf6710	-1.3703327

batch_norm1.weight f4 [8]
0	0x3f2e5799	0.68102413
1	0x3f4954e2	0.78645146
2	0x3f46f6c2	0.7772027
3	0x3f31060a	0.6914984
4	0x3f486513	0.78279227
5	0x3f1e8ab9	0.61930424
6	0x3f258d41	0.6466866
7	0x3f5002f2	0.81254494

batch_norm1.bias f4 [8]
0	0x3d82c121	0.06384493
1	0xbd55790c	-0.052117392
2	0x3dfeae0c	0.124355406
3	0x3de37d92	0.11107935
4	0xbcc4d429	-0.024026947
5	0xba3e9fa3	-0.00072717125
6	0xbc737d0b	-0.014861356
7	0x3c873530	0.016504854

batch_norm1.running_mean f4 [8]
0	0x3f00e636	0.50351274
1	0x3d9bb4af	0.07602822
2	0x3f27aea1	0.6550084
3	0x3e807ca6	0.250951
4	0x3de968b4	0.11396924
5	0x3e8f0f60	0.27941418
6	0x3e19034a	0.14942661
7	0x3e00df24	0.12585121

batch_norm1.running_var f4 [8]
0	0x3e5ce6dd	0.21572442
1	0x3d380639	0.04492781
2	0x3e855a4a	0.26045448
3	0x3dea22e8	0.11432439
4	0x3d8f2a33	0.06990471
5	0x3e4e3a95	0.20139535
6	0x3dc2fa22	0.09520365
7	0x3d740d62	0.059583075

batch_norm2.weight f4 [8]
0	0x404509cf	3.0787237
1	0x409575a7	4.670612
2	0x40843210	4.131111
3	0x4046ad96	3.1043448
4	0x407e3884	3.9721994
5	0x408204c9	4.063084
6	0x4077609b	3.8652713
7	0x40674d27	3.614084

batch_norm2.bias f4 [8]
0	0xbe9f7cb6	-0.31149834
1	0x3e7e2043	0.24816994
2	0x3f100b59	0.56267315
3	0xbee3cbe0	-0.44491482
4	0x3ea8705c	0.32898223
5	0xbd36808a	-0.04455618
6	0x3e408caf	0.18803667
7	0x3cb14e7f	0.021643875

batch_norm2.running_mean f4 [8]
0	0x4015965c	2.3373022
1	0x4002f17c	2.045989
2	0x400a8028	2.164072
3	0x3f2a943e	0.6663245
4	0x3ff82919	1.9387542
5	0x3fc0e1de	1.5068929
6	0x3fbdd371	1.4830152
7	0x3ffb4ecb	1.9633421

batch_norm2.running_var f4 [8]
0	0x3f542620	0.82870674
1	0x3f269079	0.650642
2	0x3ecae6d8	0.39629245
3	0x3ec138ab	0.37738547
4	0x3f210d70	0.6291113
5	0x3f0b66b0	0.54453564
6	0x3ee5ed97	0.4490783
7	0x3effc1fb	0.49952683
