model.pth (torch, 106183 bytes, 14 tensors)

l1.weight f4 [64, 292]
0.0036125877 0.015387528 -0.032536924 0.029032698 -0.006697626 0.041510016 0.0638024 -0.021137288
0.018166855 -0.084634915 0.030192265 -0.035611898 0.077755935 0.010732206 -0.05384338 0.042813696
-0.039052807 -0.105298966 0.06010547 0.06288591 -0.0054031457 -0.05100834 -0.04761379 0.024592815
-0.06080261 -0.0025801642 -0.052263197 0.02609989 -0.04419868 0.04870217 -0.046782423 0.03607702
0.0026752707 0.012515986 -0.030309577 -0.070698015 -0.041126925 -0.0048774653 -0.031813767 -0.0704914
0.12183638 -0.049534626 -0.013853561 0.009823435 0.024893694 -0.04574702 0.060041778 0.072637945
-0.097857766 0.047494646 -0.061881665 -0.09470808 -0.09101455 -0.049979635 -0.035309114 -0.030059004
0.009573041 -0.076662816 -0.02259292 0.01449314 -0.0009521925 0.04082798 0.02412415 0.026859583
-0.011034488 0.026676834 -0.11424461 -0.057716098 -0.043697692 -0.028558044 0.015963798 0.039477944
0.037013877 0.022794217 -0.07138625 0.10207014 -0.022637194 0.10345379 -0.037049986 -0.028445654
-0.045046464 0.08223408 -0.0074254624 -0.06394076 0.008688963 -0.06458288 0.034623403 -0.04478391
-0.040214412 -0.0075941635 0.048111763 -0.029574309 -0.08682808 -0.079069324 -0.016998962 -0.027866866
-0.00019578205 -0.015510747 0.03951305 -0.00853156 0.032257628 0.08470556 -0.02101168 0.050389938
-0.08001417 -0.007785065 -0.029339725 -0.04718515 -0.07370807 0.04423237 -0.06060095 0.009849872
-0.04244932 0.06527648 0.008758526 0.034194365 -0.008501592 -0.026234545 0.028482016 0.06576166
-0.037181426 -0.032365173 -0.020601012 -0.021278918 -0.06173804 -0.091129586 0.06598347 -0.03016756
0.12732868 0.07213745 0.12749112 0.12424761 0.034165848 0.0043195626 -0.10889946 0.016271066
0.04846604 0.008255113 0.02934162 0.0019229518 0.061054766 0.10811071 -0.108028084 0.048441023
0.046886317 -0.0019655982 -0.07088852 -0.002823106 -0.02801359 -0.047114447 0.05694122 -0.0363176
-0.09440368 -0.028417569 -0.027174959 -0.015469668 -0.033749692 -0.018136624 0.034681953 -0.027710352
0.041008525 0.014182224 -0.021717902 -0.020395221 -0.029692207 -0.045418154 0.068590045 0.043096982
-0.04169526 0.015003083 -0.073972665 0.024219358 0.05770653 -0.03719134 -0.036904793 -0.02901145
0.02904194 -0.018800495 -0.017569143 0.07118069 -0.1323751 0.017975425 -0.042694077 -0.021069685
-0.013419732 -0.022313066 -0.014224896 0.021768823 0.038175344 0.029402768 -0.06146929 -0.071334794
-0.10847474 -0.06425504 0.0008678837 0.011746038 0.07850223 0.0032888718 -0.1463732 -0.01312301
-0.054658454 -0.07632788 -0.048008673 0.012052149 -0.07666627 0.061670378 0.058494564 -0.006904643
0.023095516 0.010801697 0.0088504655 -0.035240464 0.0004367529 -0.05582814 0.13764548 0.018358348
-0.13577038 -0.003967983 0.0014195016 0.07041259 0.018246762 -0.044200305 0.067905664 -0.021120816
-0.045579575 -0.036089912 -0.03387055 0.07694121 -0.038718015 0.089572035 0.0064304206 -0.005231413
-0.0040723244 0.14311436 0.009132749 -0.016380612 -0.031483233 0.029757623 0.0006190709 -0.006791465
-0.06324912 -0.02923061 -0.05921568 0.10010361 -0.029230265 -0.012223715 0.0041434304 -0.008570454
0.0021848676 -0.052636895 -0.032424636 -0.064532794 -0.059656546 0.002895893 -0.03910204 -0.085738674
00000000: 2ac1 6c3b f81b 7c3c 7045 05bd fbd5 ed3c
00000010: c277 dbbb 6806 2a3d d5aa 823d 1b28 adbc
00000020: a8d2 943c 1255 adbd c555 f73c c8dd 11bd
00000030: 813e 9f3d 22d6 2f3c e08a 5cbd 6a5d 2f3d
00000040: d6f5 1fbd fca6 d7bd 2731 763d 54ca 803d
00000050: df0c b1bb 1fee 50bd ad06 43bd df76 c93c
00000060: 280c 79bd f917 29bb ef11 56bd 70cf d53c
00000070: ad09 35bd ed7b 473d ed9e 3fbd 7fc5 133d
00000080: 9853 2f3b da0f 4d3c ca4b f8bc 1fca 90bd
00000090: b574 28bd 25d3 9fbb 274f 02bd cc5d 90bd
000000a0: 5a85 f93d d2e4 4abd 0cfa 62bc 79f2 203c
000000b0: dced cb3c 3a61 3bbd 5eee 753d 34c3 943d
000000c0: a769 c8bd bf89 423d a177 7dbd 4ff6 c1bd
000000d0: d665 babd 72b7 4cbd 4aa0 10bd 4d3e f6bc
000000e0: 3fd8 1c3c 6501 9dbd ca14 b9bc a374 6d3c
000000f0: 8f9c 79ba 3d3b 273d 02a0 c53c a108 dc3c
00000100: ffc9 34bc 6089 da3c 14f9 e9bd b767 6cbd
00000110: 5afc 32bd 8ff2 e9bc 83c6 823c a0b3 213d
00000120: dd9b 173d f0ba ba3c f432 92bd 260a d13d
00000130: a371 b9bc 95df d33d bac1 17bd dc06 e9bc
00000140: a482 38bd 576a a83d 4b51 f3bb 60f3 82bd
00000150: 275c 0e3c 0744 84bd 45d1 0d3d 556f 37bd
00000160: deb7 24bd 76d8 f8bb d710 453d d245 f2bc
00000170: ecd2 b1bd 19ef a1bd 6841 8bbc 0e49 e4bc
00000180: d84a 4db9 ca20 7ebc 70d8 213d f5c7 0bbc
00000190: 9320 043d 1c7a ad3d b020 acbc ae65 4e3d
000001a0: 78de a3bd dc19 ffbb dd59 f0bc 3745 41bd
000001b0: 42f4 96bd 002d 353d b438 78bd 5c61 213c
000001c0: 57df 2dbd adaf 853d ec7f 0f3c 640f 0c3d
000001d0: 434a 0bbc d4e9 d6bc 1e53 e93c 0dae 863d
000001e0: 8d4b 18bd 5891 04bd 74c3 a8bc 2051 aebc
000001f0: 07e1 7cbd 26a2 babd 5722 873d f521 f7bc
00000200: 7362 023e cdbc 933d 088d 023e 8875 fe3d
00000210: 7df1 0b3d 1e8b 8d3b ae06 dfbd e64a 853c
00000220: 5484 463d 7440 073c d65d f03c 8e0b fc3a
00000230: 9014 7a3d 2669 dd3d d43d ddbd 186a 463d
00000240: de0b 403d 44d1 00bb 002e 91bd dc03 39bb
00000250: c27c e5bc 14fb 40bd 323b 693d c4c1 14bd
00000260: b756 c1bd f6cb e8bc 059e debc 7e74 7dbc
00000270: 1e3d 0abd 4293 94bc aa0e 0e3d d200 e3bc
00000280: 8ef8 273d 8f5c 683c bee9 b1bc e113 a7bc
00000290: 123d f3bc 6308 3abd f078 8c3d 7686 303d
000002a0: a6c8 2abd 7ecf 753c fb7e 97bd ad67 c63c
000002b0: af5d 6c3d f255 18bd 7b29 17bd 6ca9 edbc
000002c0: 5de9 ed3c 7f03 9abc 2aed 8fbc 2ec7 913d
000002d0: 578d 07be 3341 933c fcdf 2ebd 559a acbc
000002e0: 70de 5bbc e4c9 b6bc 8a0f 69bc 8854 b23c
000002f0: c05d 1c3d 13de f03c 39c7 7bbd fa17 92bd
00000300: 0128 debd 2598 83bd b082 633a 7472 403c
00000310: c7c5 a03d 1d8a 573b dbe2 15be e501 57bc
00000320: 8be1 5fbd cb51 9cbd bea4 44bd 6076 453c
00000330: 3503 9dbd 149a 7c3d ff97 6f3d 5840 e2bb
00000340: cf32 bd3c 9af9 303c 8b01 113c 4e58 10bd
00000350: fbfb e439 0cac 64bd f0f2 0c3e 3f64 963c
00000360: 6407 0bbe db05 82bb 920e ba3a 7a34 903d
00000370: 3c7a 953c 610b 35bd 2012 8b3d 9005 adbc
00000380: a6b1 3abd 04d3 13bd d9bb 0abd 5a93 9d3d
00000390: c896 1ebd 8b71 b73d 47b6 d23b 466c abbb
000003a0: 2271 85bb 928c 123e 87a1 153c a230 86bc
000003b0: 90f4 00bd 42c6 f33c 2549 223a f08a debb
000003c0: c188 81bd 0875 efbc 248c 72bd 1f03 cd3d
000003d0: 4f74 efbc fa45 48bc 9dc5 873b 176b 0cbc
000003e0: ff2f 0f3b c999 57bd b2cf 04bd c529 84bd
000003f0: 6c5a 74bd 06c9 3d3b 7629 20bd c297 afbd

l1.bias f4 [64]
0.042346098 0.05394981 0.04144738 0.033654526 0.0016404187 0.059293192 0.10135605 0.0013997732
0.0116051 -0.040628694 0.03650172 -0.023688616 -0.06605993 0.050182976 0.107294925 -0.022277594
0.07448948 0.057632737 0.11237306 -0.045775115 -0.14561646 0.0030890247 -0.026700662 0.066434406
0.16392523 -0.09212009 -0.08719166 -0.017368976 0.048110485 0.045123737 0.011069628 -0.02412178
0.09234686 -0.044849012 -0.013444049 0.05219416 -0.015716132 -0.024239492 -0.062996924 -0.06778596
0.028696282 -0.14455463 -0.01969065 -0.05281937 0.06065991 0.061700378 0.04122237 -0.04956474
-0.011148049 -0.011096773 0.15835997 0.08377474 -0.08540885 0.06442857 0.001512304 0.016117465
0.041237365 0.04823334 0.09810962 0.05443792 -0.04648717 -0.056928005 0.02170897 0.015161495
00000000: 1a73 2d3d 7afa 5c3d bac4 293d 54d9 093d
00000010: 5103 d73a 6bdd 723d c393 cf3d 9878 b73a
00000020: 5123 3e3c 466a 26bd d482 153d a10e c2bc
00000030: 6e4a 87bd aa8c 4d3d 71bd db3d 807f b6bc
00000040: f18d 983d 4e10 6c3d d923 e63d b07e 3bbd
00000050: 7b1c 15be 3c71 4a3b 59bb dabc c30e 883d
00000060: 04dc 273e 75a9 bcbd 8b91 b2bd 6249 8ebc
00000070: 800f 453d abd3 383d 635d 353c 0a9b c5bc
00000080: 5a20 bd3d 99b3 37bd 6e44 5cbc 8bc9 553d
00000090: 1ebf 80bc e691 c6bc 8804 81bd 5ed3 8abd
000000a0: 7714 eb3c 2106 14be 494e a1bc 2059 58bd
000000b0: 8776 783d 89b9 7c3d cad8 283d 6604 4bbd
000000c0: 4ea6 36bc 3dcf 35bc 1e29 223e 1792 ab3d
000000d0: d6ea aebd 20f3 833d 8038 c63a c608 843c
000000e0: 83e8 283d 5390 453d b2ed c83d 4cfa 5e3d
000000f0: 5569 3ebd 572d 69bd 03d7 b13c eb67 783c

l2.weight f4 [64, 64]
-0.056339473 0.08892886 0.12416844 -0.0037391954 0.13329455 0.03126224 0.13992225 0.10627966
0.014781732 -0.03188814 0.033208728 -0.117422834 0.020561727 0.055694938 -0.19863552 -0.16654949
-0.06808244 0.17551665 0.12333559 0.10582411 -0.009191893 0.069140546 0.020538215 0.14983623
0.082590915 -0.09985217 -0.02041713 -0.23804736 -0.057055786 0.0136274565 0.006819541 0.011720613
-0.1645048 0.0018356275 -0.0035313934 0.107185155 0.061129645 0.13399877 0.043613836 -0.04259969
-0.014873651 -0.068581164 -0.004618274 -0.012172545 -0.095328666 0.07758464 -0.015032035 -0.06676483
-0.04234941 -0.016648576 -0.0014152452 -0.16454116 -0.16762821 -0.11825691 -0.14973414 -0.03721888
0.099985495 0.035119012 -0.17977004 -0.03933384 -0.13269694 -0.10175671 0.009028966 -0.01086243
0.13510145 0.12444749 -0.09246164 -0.17159028 -0.06869716 -0.060700774 -0.00058926997 -0.09638346
0.02945462 -0.124116816 -0.048912715 0.03292372 0.026555652 0.005980275 0.02674724 0.04556482
0.080893785 -0.011550524 0.0060433275 -0.04880166 0.032595597 -0.04823086 -0.049571965 -0.008401808
0.017902553 -0.02729886 0.002991808 0.0053379345 0.032554593 -0.018950125 -0.01816296 0.068885274
0.15213893 -0.068135634 -0.0777265 -0.26243675 0.039105307 -0.06740601 0.043899506 -0.0065847123
-0.067293525 -0.0057060267 0.036090687 -0.05743002 -0.030919505 0.034687508 -0.18394388 -0.27279422
0.05882337 -0.0067332042 0.0073033557 -0.015462505 -0.005980547 0.14613637 0.058949526 -0.1691436
-0.12173423 0.06696773 -0.07802025 -0.17435627 0.04463739 0.012003668 -0.052228685 0.04024929
0.08409672 -0.115670554 0.034113027 -0.15659899 -0.07174821 -0.005916309 0.07447372 -0.34344935
-0.094628625 -0.082822174 0.0785427 -0.10658143 -0.0346069 0.011887047 0.06692126 -0.0013773693
0.05075846 0.05978059 -0.0035112794 -0.08580025 -0.019514132 -0.016285816 0.03637832 -0.03799564
-0.07719568 0.14086087 0.06715428 0.1843599 0.10896785 -0.17518754 0.032818392 -0.05255787
0.10175582 0.06857068 -0.010201513 -0.09738432 0.016794952 0.022181742 0.02221352 -0.1297153
0.09231134 -0.0836424 -0.103746615 0.01927947 0.077562846 -0.07708733 0.019583995 0.017414715
0.004581244 -0.021538675 -0.12737349 0.0025173656 -0.02206978 0.031947404 0.005646818 -0.04249992
-0.21530831 -0.08604597 0.03357188 -0.013408957 0.024417438 0.06539085 0.016875343 0.117842875
-0.046575963 0.010443875 0.05782571 0.058963906 -0.062601306 0.06558688 0.09094991 -0.07229228
0.007683661 1.5236586e-06 0.07330781 0.012333814 -0.065323845 -0.23927234 -0.10683739 -0.05401664
0.11768193 0.14568071 -0.15181746 -0.14436999 -0.1616751 -0.073511235 -0.03883128 -0.1485392
0.0005812896 0.10856241 0.032899395 -0.035221707 0.045444097 0.07737963 0.05278089 0.13685894
0.10388308 0.08136316 -0.12086347 -0.19175513 0.0012451748 -0.014538501 0.111659706 -0.08378722
0.014703768 -0.013423338 0.20328745 -0.0009951747 -0.07587464 -0.012674402 -0.09305935 -0.15620063
-0.07074886 0.045984186 0.13827603 0.12033705 -0.071762465 -0.14163458 0.020734796 0.080752425
-0.03186734 -0.07937401 0.05716058 -0.016020525 0.0074398573 0.07156917 -0.061945412 -0.014254872
00000000: 38c4 66bd 5620 b63d 064c fe3d 4a0d 75bb
00000010: 5e7e 083e d60c 003d c747 0f3e 26a9 d93d
00000020: 142f 723c 239d 02bd e005 083d 627b f0bd
00000030: 1171 a83c 6020 643d 1c67 4bbe f38b 2abe
00000040: ce6e 8bbd a3ba 333e 5f97 fc3d 50ba d83d
00000050: 9899 16bc 8f99 8d3d c23f a83c ab6e 193e
00000060: 6d25 a93d 4b7f ccbd d341 a7bc b0c2 73be
00000070: 54b3 69bd b245 5f3c 7576 df3b d007 403c
00000080: f273 28be 7099 f03a f36e 67bb e483 db3d
00000090: 1463 7a3d f936 093e 6ca4 323d 037d 2ebd
000000a0: 9db0 73bc 4874 8cbd e454 97bb 5b6f 47bc
000000b0: ad3b c3bd b2e4 9e3d ed48 76bc 00bc 88bd
000000c0: 9376 2dbd 9862 88bc c07f b9ba 7a7d 28be
000000d0: bba6 2bbe ae30 f2bd e853 19be d372 18bd
000000e0: 32c5 cc3d f4d8 0f3d a315 38be 851c 21bd
000000f0: b5e1 07be d265 d0bd 3aee 133c 55f8 31bc
00000100: 0958 0a3e 53de fe3d 875c bdbd 5db5 2fbe
00000110: 19b1 8cbd 60a1 78bd 3d79 1aba b164 c5bd
00000120: d14a f13c f530 febd b358 48bd 06db 063d
00000130: 3d8b d93c 2ff6 c33b 071d db3c 2da2 3a3d
00000140: a4ab a53d 693e 3dbc 1b07 c63b 40e4 47bd
00000150: f682 053d b98d 45bd f90b 4bbd bda7 09bc
00000160: 60a8 923c dca1 dfbc 3612 443b d7e9 ae3b
00000170: f757 053d 4b3d 9bbc 7dca 94bc b913 8d3d
00000180: 4fca 1b3e b28a 8bbd 122f 9fbd 1c5e 86be
00000190: e32c 203d 2a0c 8abd f8cf 333d 92c4 d7bb
000001a0: 30d1 89bd 9ff9 babb d4d3 133d be3b 6bbd
000001b0: e74a fdbc 7d14 0e3d c95b 3cbe afab 8bbe
000001c0: c6f0 703d 36a2 dcbb fd50 ef3b 7256 7dbc
000001d0: 77f8 c3bb c6a4 153e 0f75 713d fb33 2dbe
000001e0: cc4f f9bd 6126 893d 15c9 9fbd 738a 32be
000001f0: b2d5 363d 08ab 443c bfed 55bd 71dc 243d
00000200: e73a ac3d afe4 ecbd 1aba 0b3d 7c5b 20be
00000210: baf0 92bd 99dd c1bb ad85 983d 98d8 afbe
00000220: a7cc c1bd ac9e a9bd ffda a03d 5d47 dabd
00000230: f7bf 0dbd e4c1 423c 030e 893d d888 b4ba
00000240: 1ae8 4f3d 7edc 743d 7e1d 66bb 0bb8 afbd
00000250: 1adc 9fbc d569 85bc 6f01 153d 51a1 1bbd
00000260: c518 9ebd d53d 103e 2f88 893d d7c8 3c3e
00000270: 892a df3d 5d64 33be 946c 063d ec46 57bd
00000280: 5b65 d03d c96e 8c3d 3f24 27bc 6e71 c7bd
00000290: 9195 893c 7cb6 b53c 21f9 b53c 16d4 04be
000002a0: ba0d bd3d b54c abbd 1b79 d4bd fbef 9d3c
000002b0: 45d9 9e3d f6df 9dbd 9d6e a03c 4ea9 8e3c
000002c0: 431e 963b e071 b0bc 326e 02be 63fa 243b
000002d0: afcb b4bc 48db 023d f108 b93b 6514 2ebd
000002e0: c879 5cbe df38 b0bd ab82 093d 3eb1 5bbc
000002f0: 1407 c83c a3eb 853d 293e 8a3c 9b57 f13d
00000300: 70c6 3ebd c91c 2b3c a7da 6c3d 2384 713d
00000310: 1d35 80bd 6a52 863d f243 ba3d fa0d 94bd
00000320: 38c7 fb3b 8380 cc35 6822 963d c413 4a3c
00000330: 82c8 85bd cf03 75be 90cd dabd 8d40 5dbd
00000340: 3903 f13d 532d 153e 0976 1bbe bad5 13be
00000350: 288e 25be 0f8d 96bd 8c0d 1fbd a91a 18be
00000360: af61 183a f855 de3d 84c1 063d a344 10bd
00000370: 9723 3a3d 3679 9e3d c630 583d c024 0c3e
00000380: a7c0 d43d baa1 a63d 4487 f7bd 755b 44be
00000390: 2235 a33a e532 6ebc d8ad e43d a298 abbd
000003a0: 13e8 703c 8fed 5bbc 962a 503e 8670 82ba
000003b0: 2a64 9bbd 4ca8 4fbc e795 bebd 0ff3 1fbe
000003c0: c7e4 90bd ea59 3c3d 3b98 0d3e 4573 f63d
000003d0: 33f8 92bd a808 11be 05dc a93c 8761 a53d
000003e0: 5487 02bd d78e a2bd 3621 6a3d 7a3d 83bc
000003f0: 0cca f33b db92 923d 79ba 7dbd 448d 69bc

l2.bias f4 [64]
0.3782335 0.6160315 0.6414819 0.44804698 0.35575953 0.6786614 0.48279455 0.24067697
0.38731813 0.453316 0.7431382 0.26863852 0.34568533 0.4479105 0.42540187 0.50576764
0.5780937 0.48693156 0.35001883 0.4761921 0.44302642 0.6046719 0.4632997 0.5467144
0.35056424 0.5339103 0.25640005 0.43120894 0.36390054 0.5031767 0.59731746 0.27070662
0.57111245 0.40666586 0.4889714 0.47681442 0.5048039 0.4485352 0.42535296 0.68205
0.45278418 0.48305884 0.47535384 0.3297532 0.34469482 0.50395525 0.63542825 0.43476558
0.4302385 0.53422606 0.5633676 0.444593 0.5859594 0.35304424 0.32426167 0.549266
0.3365951 0.3605558 0.64222294 0.43465352 0.56188524 0.55933356 0.45926955 0.45893136
00000000: d2a7 c13e 3eb4 1d3f 2838 243f 6a66 e53e
00000010: 1d26 b63e c1bc 2d3f d930 f73e 0674 763e
00000020: 904e c63e 0919 e83e 4e3e 3e3f fd8a 893e
00000030: abfd b03e 8654 e53e 46ce d93e fd79 013f
00000040: f3fd 133f 184f f93e ab35 b33e 73cf f33e
00000050: 5cd4 e23e c7cb 1a3f 9e35 ed3e 7af5 0b3f
00000060: 287d b33e 58ae 083f de46 833e 6bc7 dc3e
00000070: 2c51 ba3e 30d0 003f cce9 183f 0f9a 8a3e
00000080: 6d34 123f 8236 d03e 765a fa3e 0521 f43e
00000090: d43a 013f 68a6 e53e ddc7 d93e d49a 2e3f
000000a0: 54d3 e73e 7d53 f73e 9461 f33e 69d5 a83e
000000b0: d77b b03e 3603 013f 6dab 223f 9899 de3e
000000c0: 3848 dc3e 0ac3 083f dc38 103f b2a1 e33e
000000d0: 6f01 163f 37c2 b43e a005 a63e b29c 0c3f
000000e0: 3156 ac3e c59a b83e b968 243f e88a de3e
000000f0: b6d7 0f3f 7c30 0f3f 6125 eb3e 0df9 ea3e

l3.weight f4 [12, 64]
-0.18177293 -0.3531178 -0.21661687 -0.3466299 -0.2351139 0.05016719 0.074931525 0.22015609
-0.12534559 -0.32200035 -0.18027213 -0.16696538 0.20502277 -0.2588758 0.30513242 0.06528024
0.28202534 -0.20330304 0.31930807 -0.2040868 0.3113049 -0.25506607 -0.20109427 0.31465176
-0.30978975 -0.27010027 -0.24144821 -0.3176582 0.15660614 -0.16579153 0.2667702 -0.20830794
-0.34911686 0.20332104 0.21565385 -0.15510507 -0.2471219 -0.27702865 0.021777017 0.29003593
0.010009404 0.2231282 -0.22209205 -0.29436892 -0.36817366 -0.21077944 0.27568662 0.30888456
-0.17866206 -0.22642142 0.060491793 0.19976765 -0.30759034 -0.33823952 0.25703868 -0.12258146
0.26834005 0.33877483 0.27791223 0.2892292 -0.25810385 0.2946598 0.2561721 -0.35400638
0.12778488 -0.36262774 -0.18288976 -0.26769814 -0.0031462843 -0.24936648 0.37675995 -0.19527
-0.2771442 -0.2698223 0.27725095 -0.2863315 0.41016647 -0.30471942 -0.22006963 -0.14233913
-0.21835889 -0.32603902 0.34463707 -0.17427434 -0.26412782 -0.106098495 -0.24162668 -0.17524913
-0.16467893 -0.17623602 0.26644668 -0.277102 -0.14766164 -0.24862148 -0.27676693 0.33358607
-0.3206821 -0.049330026 -0.30465955 0.17689046 -0.22085388 -0.24079064 -0.12187799 -0.09469948
-0.25600454 0.1015379 -0.20339349 0.2813078 0.32374287 0.14785159 -0.104917705 -0.33023295
0.2725848 -0.24995388 -0.29264796 0.35301995 0.30601418 0.082922846 -0.29359788 0.3231964
0.33515564 0.28115556 -0.30309296 -0.29103422 -0.12287865 0.1535461 0.358212 -0.39493224
-0.2818271 0.24731655 0.31927177 -0.21614866 -0.24637581 -0.3634479 -0.12881596 0.095762916
0.10220901 -0.28068912 0.26923907 -0.22651209 -0.2806123 0.29541174 -0.15751536 -0.32317486
-0.20660605 0.3193156 0.22556329 0.30874926 -0.16463418 0.276175 -0.26288804 0.18294255
0.28571805 -0.31053632 -0.3089991 0.013164121 -0.22209255 0.3637231 0.337289 0.20949107
0.3451187 0.24844426 0.19361882 0.22599624 0.25409597 0.050088275 0.32775676 -0.25994435
-0.16006531 -0.2001738 -0.26209578 -0.22460483 -0.09892923 0.24872681 0.29605025 0.028081985
-0.12880906 -0.33130088 -0.30412677 0.2610192 0.20384419 -0.18015298 0.28682944 0.34077117
-0.28224626 -0.072043955 0.32463732 -0.31075013 0.2883902 -0.27456075 -0.30068806 -0.304238
0.310173 0.25191092 -0.28899324 -0.067338906 -0.29351977 0.26670387 -0.17328529 0.12181468
-0.26178837 0.37770733 -0.3618673 0.19367953 -0.23813123 -0.019575011 -0.176748 -0.26093465
-0.086674556 -0.3622158 -0.17336114 0.3229998 0.27121094 -0.29194942 -0.32204857 -0.2760667
-0.278083 -0.28427768 0.28008744 0.1642862 -0.23129901 -0.28219333 0.28972924 -0.3338574
-0.12598571 0.28458926 -0.2649723 -0.22117841 -0.13984066 0.07420935 0.34241205 -0.28646085
0.37387016 0.07944868 -0.1270205 0.18486632 0.114182815 0.3295685 -0.24863888 -0.29248297
0.332167 -0.20350285 0.32311195 0.22583793 -0.042342003 -0.21901236 -0.20606479 0.32563746
-0.044511195 -0.29360488 -0.223049 0.3176728 0.36119494 0.13946964 -0.2725764 0.21312217
00000000: af22 3abe dbcb b4be d0d0 5dbe 7979 b1be
00000010: b3c1 70be 1d7c 4d3d b375 993d 9970 613e
00000020: 985a 00be 3bdd a4be 4299 38be f9f8 2abe
00000030: 7df1 513e 5e8b 84be 513a 9c3e a5b1 853d
00000040: a065 903e ac2e 50be 597c a33e 21fc 50be
00000050: 5b63 9f3e 0598 82be a8eb 4dbe 091a a13e
00000060: c39c 9ebe 954a 8abe 333e 77be 18a4 a2be
00000070: 5c5d 203e 41c5 29be 1b96 883e ad4e 55be
00000080: 72bf b2be 6433 503e 5dd4 5c3e ddd3 1ebe
00000090: 860d 7dbe b3d6 8dbe b765 b23c 977f 943e
000000a0: 7cfe 233c b87b 643e 196c 63be 86b7 96be
000000b0: 4281 bcbe 91d6 57be cc26 8d3e 1e26 9e3e
000000c0: 30f3 36be 04db 67be 3ec6 773d e48f 4c3e
000000d0: 7b7c 9dbe bb2d adbe 939a 833e fd0b fbbd
000000e0: de63 893e e573 ad3e 834a 8e3e da15 943e
000000f0: 3026 84be a6dd 963e fd28 833e 5340 b5be
00000100: 0ada 023e 58aa b9be 7447 3bbe bb0f 89be
00000110: e431 4ebb ed59 7fbe aee6 c03e dcf4 47be
00000120: d8e5 8dbe 2626 8abe d6f3 8d3e 0b9a 92be
00000130: 5701 d23e 2f04 9cbe ef59 61be 59c1 11be
00000140: 7999 5fbe 96ee a6be 4574 b03e f974 32be
00000150: c33b 87be 2b4a d9bd fc6c 77be 8274 33be
00000160: 98a1 28be 3777 34be b36b 883e 50e0 8dbe
00000170: 9d34 17be a196 7ebe 65b4 8dbe cbcb aa3e
00000180: 7230 a4be 480e 4abd 56fc 9bbe c622 353e
00000190: 8527 62be d291 76be 2b9b f9bd cdf1 c1bd
000001a0: 0713 83be 1af3 cf3d 6246 50be 9307 903e
000001b0: a0c1 a53e 6866 173e 18df d6bd 4b14 a9be
000001c0: 3c90 8b3e e9f3 7fbe f4d5 95be 08bf b43e
000001d0: e4ad 9c3e 74d3 a93d 7652 96be 007a a53e
000001e0: 8599 ab3e 9ff3 8f3e 002f 9bbe 7002 95be
000001f0: cda7 fbbd 303b 1d3e 9067 b73e 8f34 cabe
00000200: a44b 90be 8d40 7d3e 9777 a33e 1356 5dbe
00000210: f149 7cbe d815 babe 55e8 03be 591f c43d
00000220: f552 d13d 7cb6 8fbe b4d9 893e c9f2 67be
00000230: 6aac 8fbe 3540 973e b54b 21be 2d77 a5be
00000240: 8990 53be 567d a33e 10fa 663e 6214 9e3e
00000250: dd95 28be cf66 8d3e 4399 86be 4b55 3b3e
00000260: a349 923e 9efe 9ebe 2135 9ebe 53ae 573c
00000270: 3b6c 63be ea39 ba3e 25b1 ac3e d484 563e
00000280: 66b3 b03e 2c68 7e3e 0344 463e 8f6b 673e
00000290: de18 823e 5d29 4d3d bccf a73e 6d17 85be
000002a0: 29e8 23be 5cfa 4cbe 6b31 86be cffe 65be
000002b0: 689b cabd 3eb2 7e3e e693 973e 310c e63c
000002c0: 86e6 03be 45a0 a9be 81b6 9bbe 4fa4 853e
000002d0: 88bc 503e 067a 38be 4fdb 923e 8f79 ae3e
000002e0: 9582 90be c88b 93bd dd36 a63e a41a 9fbe
000002f0: e1a7 933e 3a93 8cbe c9f3 99be 15c5 9bbe
00000300: ffce 9e3e 78fa 803e ecf6 93be fbe8 89bd
00000310: 3948 96be 698d 883e b371 31be fa79 f93d
00000320: 2009 86be db62 c13e ac46 b9be ed53 463e
00000330: acd8 73be c65b a0bc 6dfd 34be 3a99 85be
00000340: 6e82 b1bd 5974 b9be 9585 31be 3b60 a53e
00000350: 29dc 8a3e 657a 95be 8de3 a4be 9d58 8dbe
00000360: e560 8ebe d88c 91be 9f67 8f3e a43a 283e
00000370: a6d9 6cbe a57b 90be 6457 943e 5bef aabe
00000380: 6602 01be afb5 913e 73aa 87be 987c 62be
00000390: 6432 0fbe 12fb 973d a250 af3e ffaa 92be
000003a0: e96b bf3e fdb5 a23d a911 02be 994d 3d3e
000003b0: aed8 e93d 34bd a83e 319b 7ebe 54c0 95be
000003c0: cb11 aa3e 0d63 50be ee6e a53e 0f42 673e
000003d0: cf6e 2dbd c744 60be a602 53be f4b9 a63e
000003e0: 5f51 36bd 6153 96be f566 64be 02a6 a23e
000003f0: 8bee b83e 21d1 0e3e 228f 8bbe b33c 5a3e

l3.bias f4 [12]
-0.12599954 -0.15166767 0.104514614 -0.025484193 -0.00914301 -0.044948008 0.036891527 -0.12127521
-0.055434734 0.059157427 0.04366975 -0.038303394
00000000: 0606 01be c54e 1bbe c20b d63d 3ac4 d0bc
00000010: 90cc 15bc 671b 38bd 921b 173d 235f f8bd
00000020: 880f 63bd 0f4f 723d 0ddf 323d 05e4 1cbd

batch_norm1.weight f4 [64]
1.0224156 0.99995834 0.97175163 0.99612755 0.88468254 1.0111816 0.9892338 1.0750059
0.9231553 0.9480744 1.0058059 0.8917321 0.79616445 1.0863507 1.0345098 0.87505746
0.970009 1.0664418 0.9721108 0.9315726 0.81578577 1.0377384 0.79735607 0.86401916
0.96434397 0.81646234 0.94019866 0.9566794 1.069313 0.89037055 0.9555989 0.7761553
1.006359 0.9856159 0.85471356 1.036095 0.79688513 1.0501102 0.913506 0.6253813
0.9802704 0.8359091 1.0198891 0.9531937 1.0212154 0.76541823 1.0513741 1.0109969
0.8909439 0.9189471 1.0724376 0.9822707 0.81228936 0.9597732 0.9229645 0.9772295
0.8815681 1.0030797 0.9409992 0.9433577 0.907757 0.90570015 0.7007723 1.0525703
00000000: 84de 823f 45fd 7f3f b7c4 783f 3702 7f3f
00000010: 8e7a 623f 666e 813f 6d3e 7d3f cb99 893f
00000020: e853 6c3f 01b5 723f 3fbe 803f 8e48 643f
00000030: 6fd1 4b3f 8a0d 8b3f d16a 843f c403 603f
00000040: 8352 783f 2a81 883f 41dc 783f 8b7b 6e3f
00000050: 56d7 503f 9dd4 843f 871f 4c3f 5c30 5d3f
00000060: 3fdf 763f ad03 513f dcb0 703f f1e8 743f
00000070: 40df 883f 53ef 633f 21a2 743f 1db2 463f
00000080: 5fd0 803f 5351 7c3f 82ce 5a3f c39e 843f
00000090: aa00 4c3f 036a 863f 87db 693f fd18 203f
000000a0: 00f3 7a3f 24fe 553f ba8b 823f 8104 743f
000000b0: 30b7 823f 73f2 433f 6d93 863f 5968 813f
000000c0: e614 643f 1e40 6b3f a345 893f 1876 7b3f
000000d0: 32f2 4f3f b2b3 753f 6747 6c3f b62b 7a3f
000000e0: 72ae 613f ea64 803f 53e5 703f e47f 713f
000000f0: c362 683f f7db 673f d065 333f a0ba 863f

batch_norm1.bias f4 [64]
0.016755417 -0.012720581 0.032654528 -0.062230505 -0.111641005 -0.07900184 0.17169452 -0.026461508
-0.008772307 -0.051916204 0.11797089 -0.090511136 0.09492005 -0.08093271 0.04985182 -0.19016252
0.13056488 0.17049414 0.007997196 -0.11581727 -0.2048293 0.08299406 -0.04715724 0.083314545
0.06342114 -0.15142825 -0.100563385 0.011127634 0.08802055 -0.07478441 -0.007203116 -0.11955895
-0.0049877213 -0.05599168 -0.1036323 0.0313322 0.00040733285 -0.009554411 -0.010389442 -0.29701632
0.18897735 -0.053402815 -0.109353326 -0.19239306 0.011764986 -0.15265319 -0.0809401 -0.22517847
-0.024997724 -0.07975241 0.005747901 0.097033866 -0.2323771 -0.12737353 -0.12571177 0.08198342
-0.030306175 0.0012931162 -0.04150854 -0.04112045 -0.20127262 -0.055769283 -0.07654296 0.008228183
00000000: a842 893c fc69 50bc c1c0 053d 6ae5 7ebd
00000010: 0aa4 e4bd b7cb a1bd b0d0 2f3e cec5 d8bc
00000020: b9b9 0fbc 16a6 54bd b99a f13d e75d b9bd
00000030: 7165 c23d 0cc0 a5bd 6c31 4c3d f7b9 42be
00000040: cdb2 053e 0496 2e3e ac06 033c 9b31 edbd
00000050: c6be 51be caf8 a93d f327 41bd d1a0 aa3d
00000060: f1e2 813d 0210 1bbe 2df4 cdbd ae50 363c
00000070: 1e44 b43d 9228 99bd 1e08 ecbb 53db f4bd
00000080: 0a70 a3bb 8857 65bd 2c3d d4bd 3156 003d
00000090: 4a8f d539 1b8a 1cbc 7a38 2abc 8612 98be
000000a0: 4783 413e e9bc 5abd a3f4 dfbd b002 45be
000000b0: eec1 403c 1e51 1cbe ecc3 a5bd 2f95 66be
000000c0: 07c8 ccbc 3b55 a3bd e358 bc3b b1b9 c63d
000000d0: 43f4 6dbe 356e 02be 96ba 00be ece6 a73d
000000e0: a844 f8bc c87d a93a dc04 2abd eb6d 28bd
000000f0: 691a 4ebe 556e 64bd 8ec2 9cbd 80cf 063c

batch_norm1.running_mean f4 [64]
0.07816046 0.06884334 0.14354445 0.05555461 0.084493175 0.08633812 0.18252291 0.050318245
0.06460811 0.08457362 0.066244304 0.036314514 0.0075321808 0.07450781 0.09115468 0.016739363
0.087880015 0.11284538 0.113877214 0.035492606 0.0052907118 0.044968434 0.0076922197 0.09278927
0.13730627 0.029511271 0.024649348 0.060661778 0.072026856 0.08819819 0.11285521 0.03000296
0.07070437 0.048812263 0.0712855 0.0801411 0.011557743 0.03051745 0.03710474 0.0057186047
0.13318536 0.0017553449 0.025009714 0.02885659 0.10289014 0.047148526 0.06306705 0.021596806
0.11012721 0.046767846 0.116523854 0.099181145 0.0037884025 0.04732678 0.040768504 0.12062065
0.16923183 0.119608454 0.090985246 0.05223715 0.014738379 0.06786251 0.01706032 0.08183777
00000000: 9712 a03d bdfd 8c3d 51fd 123e 3b8d 633d
00000010: c20a ad3d 0ad2 b03d 49e7 3a3e 811a 4e3d
00000020: 4251 843d ef34 ad3d 18ab 873d 87be 143d
00000030: 83d0 f63b 8d97 983d 4eaf ba3d fd20 893c
00000040: 70fa b33d 7b1b e73d 7538 e93d b260 113d
00000050: b55d ad3b d230 383d 040f fc3b 4d08 be3d
00000060: 049a 0c3e 9fc1 f13c 6eed c93c 7c78 783d
00000070: d182 933d 41a1 b43d a220 e73d c4c8 f53c
00000080: 74cd 903d 5eef 473d 22fe 913d 0421 a43d
00000090: b05c 3d3c bbff f93c 24fb 173d 2263 bb3b
000000a0: be61 083e 9a13 e63a 2ce1 cc3c a864 ec3c
000000b0: 11b8 d23d d01e 413d 4c29 813d c9eb b03c
000000c0: 608a e13d a48f 3f3d 0fa4 ee3d 7c1f cb3d
000000d0: d946 783b bad9 413d e0fc 263d f607 f73d
000000e0: 1c4b 2d3e 47f5 f43d 7956 ba3d 9ff6 553d
000000f0: 3e79 713c 80fb 8a3d 16c2 8b3c 909a a73d

batch_norm1.running_var f4 [64]
0.007815892 0.0056049526 0.028693292 0.0058247484 0.01218295 0.010044397 0.023831546 0.006492948
0.010069663 0.0149209 0.00694788 0.0044738525 0.0009931608 0.008212047 0.011308965 0.0023211737
0.010494308 0.0134484805 0.011754461 0.0050000395 0.00074745936 0.0047348156 0.0012297019 0.009090194
0.013699473 0.0046958234 0.0035676835 0.009366461 0.0061404025 0.013015503 0.017955547 0.0046098405
0.008211869 0.0072498997 0.012159163 0.009711968 0.001543538 0.004172279 0.0055002235 0.00066261226
0.019147972 0.00021022386 0.0024417364 0.003408281 0.010059938 0.0053158994 0.007901969 0.003200008
0.019799884 0.006771132 0.012338079 0.009261285 0.0004324964 0.006475518 0.004534854 0.017451862
0.027652882 0.016594939 0.010515232 0.004833177 0.0027185418 0.012446698 0.00224584 0.0099895755
00000000: 3a0e 003c c0a9 b73b 320e eb3c 88dd be3b
00000010: ff9a 473c 4191 243c 603a c33c ccc2 d43b
00000020: 3afb 243c ca76 743c 0bab e33b 6599 923b
00000030: f22c 823a d28b 063c 3d49 393c d51e 183b
00000040: 51f0 2b3c 0457 5c3c c895 403c 5fd7 a33b
00000050: 26f1 433a 8326 9b3b f32d a13a 09ef 143c
00000060: c173 603c 6cdf 993b cccf 693b c975 193c
00000070: 6e35 c93b fa3e 553c 8317 933c 250e 973b
00000080: 138b 063c 9190 ed3b 3a37 473c f21e 1f3c
00000090: 8a50 ca3a 9db7 883b 383b b43b 28b3 2d3a
000000a0: 35dc 9c3c 8a6f 5c39 8a05 203b 775d 5f3b
000000b0: 70d2 243c ff30 ae3b 4377 013c 3ab7 513b
000000c0: 5e33 a23c 5fe0 dd3b a725 4a3c a5bc 173c
000000d0: afc0 e239 9530 d43b 1d99 943b 35f7 8e3c
000000e0: 4c88 e23c 1cf2 873c 1448 2c3c a15f 9e3b
000000f0: 9029 323b 3ced 4b3c f12e 133b 51ab 233c

batch_norm2.weight f4 [64]
1.7594818 1.7903656 1.6747946 1.6944379 1.6761092 1.672107 1.6845335 1.7515439
1.5236464 1.6739695 1.8319062 1.5442572 1.7677451 1.7158475 1.7118567 1.576259
1.6048361 1.6462759 1.6125675 1.6457392 1.7849251 1.5662599 1.6940649 1.6206338
1.6003357 1.6610665 1.6738632 1.5171292 1.6641905 1.7286433 1.761988 1.5128523
1.6968775 1.6195849 1.7423029 1.7798223 1.7812243 1.6749347 1.5564401 1.7343233
1.6508502 1.7267911 1.7111754 1.6109942 1.7360475 1.7259338 1.7466348 1.5881329
1.6376729 1.7467484 1.612733 1.8898417 1.7525274 1.6335396 1.6651161 1.7474647
1.6718155 1.6857239 1.8088802 1.6580131 1.7643597 1.7947966 1.7960669 1.8583999
00000000: b336 e13f b32a e53f ab5f d63f 57e3 d83f
00000010: bf8a d63f 9a07 d63f cb9e d73f 9732 e03f
00000020: d806 c33f a244 d63f e77b ea3f 38aa c53f
00000030: 7945 e23f e4a0 db3f 1f1e db3f dbc2 c93f
00000040: 456b cd3f 2bb9 d23f 9d68 ce3f 95a7 d23f
00000050: 6d78 e43f 347b c83f 1ed7 d83f ee70 cf3f
00000060: cdd7 cc3f d49d d43f 2641 d63f 4a31 c23f
00000070: 3204 d53f 2f44 dd3f d388 e13f 25a5 c13f
00000080: 4833 d93f 8f4e cf3f c803 df3f 38d1 e33f
00000090: 28ff e33f 4364 d63f 6e39 c73f 4efe dd3f
000000a0: 0f4f d33f 7e07 dd3f cc07 db3f 0f35 ce3f
000000b0: ce36 de3f 66eb dc3f bb91 df3f f047 cb3f
000000c0: 449f d13f 7495 df3f 096e ce3f 55e6 f13f
000000d0: d152 e03f d317 d13f 8622 d53f ecac df3f
000000e0: 0dfe d53f cdc5 d73f 6389 e73f c639 d43f
000000f0: 8ad6 e13f e5bb e53f 85e5 e53f 0ce0 ed3f

batch_norm2.bias f4 [64]
0.03102459 -0.017998576 0.05052827 -0.009333464 -0.14250766 0.059630405 -0.053702056 -0.01775777
-0.112300195 -0.040909275 0.08277493 -0.14992934 -0.1242751 0.020898575 0.033942908 0.1435342
-0.055811625 -0.045013975 -0.06590866 0.009862432 -0.12967727 0.09157597 -0.009254897 -0.05753798
-0.07178296 -0.0796149 -0.11830704 0.09969097 -0.08491545 -0.019976435 0.0026962694 -0.10510972
0.025627827 0.08698155 0.0806155 0.042723432 -0.05437757 0.0023039693 -0.11521795 -0.016283814
-0.0037370648 -0.10794576 -0.0005105025 -0.15633775 -0.09071066 -0.015207931 -0.0065360307 -0.10765546
0.04156646 -0.0070486125 0.1318228 -0.028914021 0.08009452 -0.1765395 0.031215888 -0.03014792
-0.21688133 -0.015527359 -0.006288514 -0.15017585 0.07550465 0.0476506 -0.050544113 -0.10442468
00000000: 4827 fe3c c071 93bc bbf6 4e3d 63eb 18bc
00000010: 87ed 11be 033f 743d b0f6 5bbd be78 91bc
00000020: a5fd e5bd 7c90 27bd e785 a93d 1487 19be
00000030: f283 febd 7d33 ab3c b807 0b3d a1fa 123e
00000040: bb9a 64bd 9360 38bd 1ffb 86bd 0a96 213c
00000050: 1eca 04be 2f8c bb3d daa1 17bc f2ac 6bbd
00000060: f202 93bd 230d a3bd f64a f2bd c72a cc3d
00000070: 27e8 adbd 9fa5 a3bc e5b3 303b c443 d7bd
00000080: 73f1 d13c 6223 b23d bd19 a53d c4fe 2e3d
00000090: 04bb 5ebd 31fe 163b 63f7 ebbd a265 85bc
000000a0: 8be9 74bb ab12 ddbd 3ed3 05ba 0117 20be
000000b0: 83c6 b9bd b02a 79bc 332c d6bb 777a dcbd
000000c0: 9841 2a3d 0cf8 e6bb 8efc 063e 19dd ecbc
000000d0: 9808 a43d c5c6 34be 76b8 ff3c c5f8 f6bc
000000e0: 2416 5ebe 7766 7ebc e10f cebb b3c7 19be
000000f0: 2fa2 9a3d 472d 433d 5807 4fbd 9bdc d5bd

batch_norm2.running_mean f4 [64]
0.9857943 0.99260503 1.0402291 0.92146 0.8339639 1.0956461 1.0006163 0.8323794
0.91506875 0.9654265 1.1467068 0.76436263 0.8683268 0.9031104 0.9667816 0.96236604
0.9846547 0.86521935 0.86347896 1.0405964 0.866424 1.0330194 0.941197 1.0870919
0.78789526 0.88983625 0.80834967 0.96260357 0.8043955 1.0599893 0.9752217 0.81033164
1.0260832 0.8609763 0.9019221 0.9250003 1.0714924 0.9582388 0.85907525 1.1442775
1.0340543 0.84253806 0.8222915 0.7494086 0.84691924 0.94392264 1.0040247 0.8594681
0.8439441 0.9740493 1.0816336 0.88919586 1.0774393 0.805999 0.8048375 0.8602808
0.90878266 0.82528895 1.0386018 0.966907 0.957446 1.0582126 0.9116155 0.89655125
00000000: 045d 7c3f 5d1b 7e3f 3a26 853f cde4 6b3f
00000010: a87e 553f 223e 8c3f 3214 803f d116 553f
00000020: f241 6a3f 3126 773f 4ac7 923f 45ad 433f
00000030: aa4a 5e3f 3e32 673f 007f 773f 9f5d 763f
00000040: 5512 7c3f 047f 5d3f f50c 5d3f 4332 853f
00000050: f7cd 5d3f fb39 843f 49f2 703f d425 8b3f
00000060: 81b3 493f 4fcc 633f 01f0 4e3f 306d 763f
00000070: ddec 4d3f bbad 873f 21a8 793f e571 4f3f
00000080: b256 833f f168 5c3f 5ee4 663f d2cc 6c3f
00000090: aa26 893f 234f 753f 5bec 5b3f af77 923f
000000a0: e45b 843f 93b0 573f b281 523f 3ed9 3f3f
000000b0: b3cf 583f eaa4 713f e283 803f 1a06 5c3f
000000c0: b80c 583f 4c5b 793f f872 8a3f 57a2 633f
000000d0: 88e9 893f f355 4e3f d509 4e3f 5d3b 5c3f
000000e0: fba5 683f 2346 533f e7f0 843f 3887 773f
000000f0: 2e1b 753f 8373 873f a25f 693f 6284 653f

batch_norm2.running_var f4 [64]
1.5163826 1.154886 1.1498634 1.1775392 1.1982528 1.1007156 1.4759386 1.1246192
1.3589053 1.3957691 1.4630661 1.1889842 1.1574004 1.1616411 1.3817661 1.0449858
1.2428448 1.0644734 1.3164535 1.3189266 1.0690396 1.2187929 1.1986853 1.3108457
1.0111438 1.2618347 0.9494101 1.1098378 1.058344 1.3136411 1.3715374 1.2912091
1.3036996 1.0561925 0.95513904 1.1787206 1.376152 1.2258092 1.0697821 1.5301071
1.7017876 1.2926687 0.94793206 0.8731812 0.932892 1.124435 1.2166984 1.0104978
1.0145934 1.2960641 1.3666672 1.1903039 1.2817674 0.96736985 0.9266169 1.2184224
1.170543 1.0860214 1.1902971 1.376724 1.1246936 1.5723593 1.2987617 1.220756
00000000: d318 c23f 4ed3 933f b92e 933f 9bb9 963f
00000010: 5960 993f 40e4 8c3f 8eeb bc3f 86f3 8f3f
00000020: 9cf0 ad3f 90a8 b23f c045 bb3f a230 983f
00000030: b225 943f a8b0 943f b6dd b03f 18c2 853f
00000040: 8a15 9f3f aa40 883f 8c81 a83f 96d2 a83f
00000050: 4ad6 883f 6801 9c3f 856e 993f cbc9 a73f
00000060: 296d 813f cd83 a13f 8a0c 733f 2a0f 8e3f
00000070: d177 873f 6425 a83f 8a8e af3f 5746 a53f
00000080: a1df a63f 5131 873f fe83 743f 51e0 963f
00000090: c025 b03f 51e7 9c3f 9fee 883f 8dda c33f
000000a0: 2dd4 d93f 2b76 a53f adab 723f ce88 5f3f
000000b0: 03d2 6e3f 7ced 8f3f c6bc 9b3f fe57 813f
000000c0: 32de 813f 6ee5 a53f f3ee ae3f e15b 983f
000000d0: f410 a43f 8da5 773f c436 6d3f 44f5 9b3f
000000e0: 5ad4 953f c002 8b3f a85b 983f 7e38 b03f
000000f0: f6f5 8f3f 1243 c93f d33d a63f bc41 9c3f
